modelodos_entrenado.npz (npz, 2586 bytes, 4 tensors)

pesos_0 f8 [30, 5]
-0.9052076776639733 2.703055078079904 0.3592965453838762 3.6044440722537274 0.1103159097445025 0.3881123643005572 -1.4804041703196242 0.7264689319854034
-1.5773169877216189 -0.41914538012094743 -0.648241512918646 1.2563366596635526 -1.1218435649030791 0.4753455417031148 -1.374254978866036 1.5412270124357883
-6.025086840401313 -0.565627473223909 -6.470049186950108 0.857094445302343 -1.0705001787280808 -1.5929138842915151 0.3258382542329172 -1.835054962941286
-1.378232536192033 1.754837816956632 0.13155795790955271 4.596582873654954 0.3760948823896012 0.6843960722952027 -4.560579923106188 6.227862943200119
0.6147789806070396 6.027069217111056 -3.74477884566806 2.400419960340977 0.1939381398832314 1.9710333264780089 0.3075541049737896 1.2301471864242808
2.7202602234195834 -0.9554621323526138 -2.5548548489613956 -1.265835493093232 1.7572717525382375 0.5200556092457177 -1.1235176842824903 0.7674078130079056
-1.7923359976959725 -0.3137702374292209 -1.4347548204586111 0.12886416638522816 0.48976871746563533 0.37756844976576215 -1.1697537840412968 -0.9877442087798176
-0.41818247371861045 2.7614279769905576 0.09255799888301187 -3.2041736870918673 -1.3068017941740482 3.866439496976111 0.3402300321143441 3.8988381193481243
0.7151348999216954 -0.03369210600583207 -0.2653587527043349 1.1057204819704025 0.08059157042083237 -0.3220361990441002 -0.64479612636561 -0.016314160326146833
-1.6476476871496055 -0.4600896839900623 -0.6741986181794288 1.8240351991116988 -4.215782313495054 0.23277673008247224 -5.994972001960779 1.8132056078362464
-0.9070524148082325 -0.3274855930081139 0.9458404838707657 -0.09988728613074592 -0.9627153174877437 0.6290793170042873 0.06172110860807612 1.6311045052823383
0.4811132249575022 0.6482001877927088 -3.485133848716476 2.855713511078667 -2.3553229490796874 2.184646342679843 -1.2509051023117823 0.6088421584078981
1.075885686320873 1.1684121851258775 1.6037544181804997 0.353169047322179 4.393017739440843 -1.0674163787050142 -0.1298230210906856 -0.04892129098523239
2.1358565606510047 2.308467100124961 -4.313993252875069 -3.1523016060123763 -5.148133048979482 2.7395160552977615 0.4857431941463096 0.457912389005365
1.3664291547180103 1.0844131875833685 0.16127272931950165 5.733800549303902 -3.347775313635511 1.0317938954069505 -2.824805670883811 4.3602571493846
-2.0282414032633005 2.9384794317699123 -0.6288078847054389 3.5057094654438266 -0.001913121125343428 -0.8352748157649517 1.189338981436366 1.0240223878900194
2.2513503796993084 -0.6634869688088985 -0.36422202095903333 0.9912180688502135 -0.6022459982638575 1.2824854851598342 -2.647842629725609 4.64811645796423
-2.3349478018221275 0.5371073287751319 -1.9128430471274411 4.534714424492468 0.17528344102458532 0.5971144254181653 1.8350389148871586 2.1471609542794905
-0.12872987798037697 -0.5052068245726998 0.8808772463157399 -2.275413669049778 0.8133011369647366 -0.11730920544880377
00000000: bcf4 7417 76f7 ecbf 8b1e 3d57 db9f 0540
00000010: 6d54 ffef b6fe d63f 00ba 14c6 e6d5 0c40
00000020: acc4 94d8 a93d bc3f 3e06 f63d d5d6 d83f
00000030: 2428 8648 bcaf f7bf d2fe 0dc6 3b3f e73f
00000040: 8c08 dbbc b03c f9bf afe4 f824 47d3 dabf
00000050: 09a5 3cfc 64be e4bf 5d55 2078 f419 f43f
00000060: d8c9 e73c 12f3 f1bf 9a83 fab4 0f6c de3f
00000070: 4984 e9c9 f2fc f5bf d7f9 e1a7 dda8 f83f
00000080: 9e55 5c5d b019 18c0 e0e7 66c9 9e19 e2bf
00000090: 32d9 f592 54e1 19c0 b404 8554 516d eb3f
000000a0: fafc 9fcb c420 f1bf ad05 e644 937c f9bf
000000b0: cbd4 6db1 88da d43f 0320 c397 625c fdbf
000000c0: 8da5 538f 3d0d f6bf e7cd 99d1 d013 fc3f
000000d0: 6802 6023 e4d6 c03f 92ce ee9e e662 1240
000000e0: 7a9a 0345 f011 d83f 9499 8097 92e6 e53f
000000f0: 1e24 d2a9 083e 12c0 2c0f 44e7 54e9 1840
00000100: ea36 fff7 44ac e33f 99e1 6808 b81b 1840
00000110: f42c 879c 4ef5 0dc0 12a4 5261 0f34 0340
00000120: 406e 1f08 f7d2 c83f 46c9 c83d 5a89 ff3f
00000130: 053b a769 f7ae d33f d756 efd0 aeae f33f
00000140: f992 c1ca 17c3 0540 36ab 6052 2593 eebf
00000150: 9b87 32bd 5770 04c0 3439 cfb7 dc40 f4bf
00000160: a161 35fc c81d fc3f 8df9 39a9 4ba4 e03f
00000170: 0289 e7ad edf9 f1bf f60a 72d4 9a8e e83f
00000180: 84c3 d882 68ad fcbf bddd 0dc3 cf14 d4bf
00000190: 905e 7a78 c1f4 f6bf 191c 20fa 9e7e c03f
000001a0: e499 07e4 5e58 df3f 19b4 efdb 142a d83f
000001b0: 1c46 6dbe 4fb7 f2bf 10ba 30be 999b efbf
000001c0: 996f 186c 80c3 dabf 9978 1b8d 6717 0640
000001d0: b18c 2f8a e1b1 b73f 411b 66d0 25a2 09c0
000001e0: 7b4e 85ff a8e8 f4bf fbcc bbd4 77ee 0e40
000001f0: b014 432f 54c6 d53f 99fc 370a d230 0f40
00000200: 918a ec95 62e2 e63f 1259 db7a 1740 a1bf
00000210: 59a3 2447 a3fb d0bf a648 c9f5 07b1 f13f
00000220: fc6e 4a2f a6a1 b43f 9271 c1b7 3d9c d4bf
00000230: 297d 6a7c 2ba2 e4bf 5a00 40c4 a8b4 90bf
00000240: 9733 3ad2 c35c fabf f7b6 7d00 1c72 ddbf
00000250: 66d9 02fb 0893 e5bf 6300 6f88 3f2f fd3f
00000260: df10 ee09 f6dc 10c0 44ad 7cbd a0cb cd3f
00000270: c46d c3f0 d9fa 17c0 a549 29e2 e302 fd3f
00000280: 717e 2bc9 9206 edbf 8f62 f821 86f5 d4bf
00000290: eca5 2e43 5344 ee3f 57be 3793 3692 b9bf
000002a0: cffa 7e5a 90ce eebf 25f3 a3f2 6a21 e43f
000002b0: 319c e3bd e899 af3f 04bc a809 0119 fa3f
000002c0: 6265 b71f 8fca de3f 7295 fa51 0ebe e43f
000002d0: e85b f3da 8de1 0bc0 2ca0 4653 80d8 0640
000002e0: 3586 ee8e b3d7 02c0 6516 99dc 277a 0140
000002f0: 1b42 8d11 b503 f4bf 1537 d98c a27b e33f
00000300: feb8 cfe8 d336 f13f 11d1 b5f9 d0b1 f23f
00000310: 7d69 8e64 faa8 f93f ba53 0d59 529a d63f
00000320: c895 063e 7392 1140 6a0b 5c32 2314 f1bf
00000330: de1b ed6e 0a9e c0bf 0627 b821 360c a9bf
00000340: 7b8b e7f6 3b16 0140 e86d 5799 bd77 0240
00000350: 650d 8172 8741 11c0 899c 87e7 e937 09c0
00000360: 694b a330 b097 14c0 6df7 c264 87ea 0540
00000370: 0a3b 479f 6a16 df3f 7e85 cdc3 6f4e dd3f
00000380: 5509 3dd1 e4dc f53f ce58 80a4 c159 f13f
00000390: 54fb 14b5 95a4 c43f 3a30 4469 69ef 1640
000003a0: 845d 736c 3ec8 0ac0 c7c3 cf50 3a82 f03f
000003b0: ae02 30b7 3399 06c0 3607 0b40 e770 1140
000003c0: ae45 fba0 d639 00c0 0e5d 1b81 0182 0740
000003d0: 89db 88b6 311f e4bf fbde 7a67 b10b 0c40
000003e0: 252d aa2a 3658 5fbf a840 1c40 92ba eabf
000003f0: c708 d24f 8807 f33f 59c0 a54c 6562 f03f
00000400: 6b2a e5fc c302 0240 8e67 0b06 493b e5bf
00000410: fe21 20e1 694f d7bf 684f 9df4 0eb8 ef3f
00000420: a215 5666 9945 e3bf ebb2 0580 0f85 f43f
00000430: 4f02 dd1d c82e 05c0 aad2 3bd7 ab97 1240
00000440: 868b f51c f9ad 02c0 ddfe 70b5 fb2f e13f
00000450: 8cb1 9c4f 019b febf 1594 972d 8c23 1240
00000460: 668f 5d13 b06f c63f da81 24b6 8f1b e33f
00000470: 273e e5c3 515c fd3f 4c07 efb8 622d 0140
00000480: 19ce f87b 387a c0bf 252f a880 a72a e0bf
00000490: b6ee 967a 2530 ec3f 7585 eb14 0c34 02c0
000004a0: 6905 221b 9006 ea3f 9a1f ece0 f907 bebf

pesos_1 f8 [5, 7]
-0.318200454291864 3.3875744384708844 5.213087781463032 -5.190924968137548 -5.2738775711480335 -4.562637698342138 -5.292844386104625 -1.4209390880948498
1.6753914775948602 5.298074994038308 -5.3170673364849765 -5.358131332094094 -4.760554266479388 -5.36891077656243 -2.124599934092622 -0.16168404833619418
1.2088189429287859 -1.2200269247937072 -1.2330939461662758 -0.8191309224130373 -1.216953096901766 4.166824011834364 2.8392966261420356 4.310609168712334
-4.24950873901482 -4.313850274530246 -3.343344209187429 -4.354705917487274 2.9256582999755745 2.452622637457041 3.7129492169550855 -3.7335293465453834
-3.7576482141681837 -3.3973324509344973 -3.788594728440783
00000000: a560 3070 655d d4bf eefb 8fa0 c019 0b40
00000010: 613e f2ae 33da 1440 fc8f b8d5 81c3 14c0
00000020: 3fc1 ac5c 7318 15c0 3a81 c718 2440 12c0
00000030: d78b 1466 df2b 15c0 6a9b 0fa0 2abc f6bf
00000040: cd45 444b 67ce fa3f 8799 3c92 3a31 1540
00000050: ca54 c34c ad44 15c0 7511 dcfa b96e 15c0
00000060: ef72 d5bc ce0a 13c0 10e9 21bf c379 15c0
00000070: b017 1040 2eff 00c0 6bc5 f119 10b2 c4bf
00000080: 7da1 2a88 5257 f33f a0a7 e3f3 3a85 f3bf
00000090: 36e0 bab7 c0ba f3bf 7b00 5d0d 5236 eabf
000000a0: 1458 7fcf a378 f3bf 7f10 ece9 d3aa 1040
000000b0: ad62 4726 e1b6 0640 32d4 7554 103e 1140
000000c0: 168a 0838 7fff 10c0 c8ca 63f7 6141 11c0
000000d0: 11d9 ad3f 2bbf 0ac0 d938 2d07 386b 11c0
000000e0: 1254 ed89 bf67 0740 4275 0a9e f89e 0340
000000f0: 493f 14b8 1eb4 0d40 a48c 50a2 44de 0dc0
00000100: 1dcd eddd a90f 0ec0 bc39 d3a2 bc2d 0bc0
00000110: fc9b c3c0 0a4f 0ec0

sesgos_0 f8 [1, 5]
-2.0060207182241 -3.003631858282125 -0.19973982852159716 -3.6203093536323787 -2.053470008307109
00000000: b0f7 1e97 540c 00c0 0c5d c423 7007 08c0
00000010: 7ebd 9a1f 1391 c9bf 1f08 1ac0 64f6 0cc0
00000020: 91f7 07af 816d 00c0

sesgos_1 f8 [1, 7]
-2.18834146248523 -3.0363606231846685 -5.300375706195909 5.229125592944115 5.314782991893531 3.986916317897759 5.336945326108692
00000000: c8d6 2e2b b981 01c0 cc85 3b70 774a 08c0
00000010: 517f 6ab0 9533 15c0 807c 41e6 9fea 1440
00000020: 3914 fe78 5642 1540 b113 ea61 34e5 0f40
00000030: 22b5 1032 0859 1540
