modelodos_entrenado.npz (npz, 118278 bytes, 8 tensors)

pesos_0 f8 [30, 128]
0	0xbf8b758af2b58d8b	-0.013407788783928584
1	0xbf786901917e0aae	-0.005959516645705305
2	0x3f872c365286e809	0.011314796823047162
3	0xbf90a2307d4cc90a	-0.016243703506185127
4	0xbf9d5b707bd21c16	-0.028669126088541295
5	0xbf512158e2e5fcb2	-0.0010455482511984413
6	0xbf836f1ac877afa7	-0.009489258997710538
7	0x3f9869eb7f0c922b	0.023841552381002423
8	0xbf7e327073ecaf7b	-0.007372321385258003
9	0x3f938eb2baa075c1	0.01909903778152056
10	0xbf7bf28da5a4acf7	-0.006823113735929135
11	0x3f7644d4783b851f	0.005436735114672047
12	0xbf92e9a42dadb8e3	-0.018469395912171015
13	0xbf567b596682e59c	-0.0013721821833726283
14	0x3f68adb9e911eda5	0.0030125266135294254
15	0x3f48bf63d626e569	0.0007552373393117487
16	0x3f7204c5a2934fe6	0.004399082195238413
17	0xbf7881be6b50c3a2	-0.005983108353618956
18	0xbf96dab546dcfc7d	-0.022318680238865064
19	0x3f88917d05f2c8e6	0.011996247047453012
20	0xbf8ddc088fd1d3b4	-0.014579836739565845
21	0xbf61c0ba94e4170a	-0.0021670955821971915
22	0xbf63b789c923936d	-0.0024068537833152243
23	0x3f8278e2620618eb	0.009019631020020976
24	0x3f8cc9feda090fb0	0.014057150868332119
25	0xbf8e7604b49de20f	-0.014873539697632969
26	0x3f6d8d5c0c901c18	0.0036074445565677064
27	0x3f62cfe97a9af5dc	0.0022964058051388857
28	0xbf2bd0c98edea62b	-0.0002122159998497059
29	0x3f8e67c15a652012	0.014846335002076248
30	0xbf5e9c7ed1dc9f5f	-0.001868366095957051
31	0x3f7832efae76c3cf	0.005907951598985896
32	0x3f77f174d6f0c98c	0.00584550514672556
33	0xbf922c8684108219	-0.017747976122452245
34	0xbf643578161dcea0	-0.0024669022977209104
35	0x3f79797b8326e995	0.0062193703365046775
36	0xbf7da00e64dbf81e	-0.007232719637384503
37	0x3f67483bdf798c30	0.0028420609849475684
38	0xbf92aad166a898a3	-0.018229743853361523
39	0xbf938c4110bf355e	-0.019089714667463446
40	0xbf6fd9a0f2c9aaa4	-0.0038879531405674062
41	0x3f8d151841cce638	0.014200391300266721
42	0x3f2773127f5f1256	0.00017890549469092254
43	0xbf8ee6f22145f1c0	-0.015088931694429486
44	0x3f720dce60da9bd6	0.004407697835325094
45	0xbf928b9e0ee7f98a	-0.01811072317104271
46	0xbf83842854181fd9	-0.009529414240219513
47	0xbf84f003debe604c	-0.010223417506310416
48	0x3f92a15a680133c4	0.018193638418143157
49	0x3f4a452a755b9cc8	0.0008017022434757765
50	0x3f90c8d1f9533ce2	0.01639106830844817
51	0xbf72a78a6ed01532	-0.004554310563439844
52	0x3f675eb4b8c2ef43	0.0028527765008145313
53	0x3f91bb4b3a84b29f	0.01731603188197772
54	0xbf9507e871d4bbdb	-0.0205379790760921
55	0xbf7fdad9d6e6c52f	-0.0077770718911989575
56	0xbf718cea6914bf8a	-0.004284778276357213
57	0xbf8d0dc2b2a38f4f	-0.014186402393938783
58	0x3f6113048f9d5b6d	0.002084263714020754
59	0x3f8962ab7aa1766e	0.012395229034321189
60	0xbf6f386a9ba1684d	-0.0038110811411060986
61	0xbf8b16132710cc25	-0.013225698117912252
62	0x3f91ae5869682bb9	0.0172666372618939
63	0x3f82c7319e3362b0	0.009168994560626004
64	0x3f7813030996144d	0.005877506127380872
65	0xbf734c793542de51	-0.004711602658225526
66	0x3f9278d3fe0b5c0d	0.018039047604215642
67	0xbf79398b3003d610	-0.006158393575096635
68	0xbf6d9ae670cfef72	-0.0036139012140647348
69	0xbf4c7c48a21966e2	-0.0008693079618737577
70	0x3f756b4b4bd96a87	0.005229276777380171
71	0x3f6b685c94f13ee1	0.003345661949005194
72	0x3f901be0bf53dd79	0.015731345823011254
73	0xbf36bbae87cbae05	-0.00034688006398539444
74	0xbf71d021b3e4281c	-0.004348880435154381
75	0x3f84d3c666e84643	0.010169553771478884
76	0x3f318270cafc9347	0.0002671742795306475
77	0x3f718ce125c2f274	0.004284743769116351
78	0x3f92521f2b13ea80	0.017891394619236056
79	0xbf814b14ce996ac8	-0.008443987421903457
80	0x3f6162939d4eec7e	0.002122200307409338
81	0xbf601f68c32e92c9	-0.0019681020871352467
82	0xbf7a879c2cc7e538	-0.006476984079648411
83	0x3f64f5e5e328c2c4	0.0025586595522998096
84	0xbf81e5b5c2a251cf	-0.008738918306598812
85	0x3f7bf205592fb37a	0.006822605983853753
86	0xbf8a85b797e4b0f6	-0.012950357745090884
87	0xbf6db68910bdd5aa	-0.0036270787294891598
88	0x3f90ceacf63d2e5b	0.016413404969439643
89	0xbf69398070effcda	-0.003079176770824793
90	0xbf6d4605efc1f38d	-0.003573428721266264
91	0x3f855b50b769e347	0.010428076360072714
92	0x3f895641789505df	0.012371551029562276
93	0x3f81db23cc43fd5b	0.008718757315817774
94	0xbf8c88fd96622012	-0.013933163787683642
95	0x3f6146b2a4ed377f	0.002108906664409937
96	0xbf8c0e271cf13c87	-0.013698869295835315
97	0xbf95bd5dd8e6fdb4	-0.02123018871657019
98	0xbf95b731c322a94f	-0.021206643614882833
99	0xbf71d915b760657f	-0.004357418851236416
100	0x3f7a7a01bf6ba3a7	0.0064640110274262535
101	0xbf88780a8f99973d	-0.011947710521052474
102	0xbf6b28a3dc637253	-0.0033152771385245665
103	0x3f837f2a256ff6fb	0.009519891040322906
104	0xbf8500d7a0274b83	-0.010255512785908532
105	0x3f81def88665be61	0.00872606430195261
106	0x3f6cd70cf583de8d	0.00352051287711303
107	0x3f860f8f4471644c	0.010771865154469172
108	0x3f90b2b0171265c3	0.016306640060610677
109	0xbf78d9cefa23c1e2	-0.006067093376473017
110	0xbf82b7c8cd3b52c4	-0.009139603388953595
111	0xbf91e5133718965e	-0.01747541450290268
112	0x3f87f1b995df26f5	0.011691522489758447
113	0xbf767f1997064566	-0.005492305718136725
114	0xbf94f51a5b4417f7	-0.020466243572649003
115	0xbf8168d4b7e859df	-0.008500730383315279
116	0x3f6768a74a32e6c4	0.0028575198535606156
117	0xbf5a88f6a2cb4ecb	-0.001619568686852912
118	0x3f6f84a61b1c2adb	0.003847431588729006
119	0x3f698e27e340736c	0.003119542985599846
120	0xbf7429982b849d2e	-0.0049224800243686095
121	0xbf4538fb3e5e0b98	-0.000647661855268533
122	0x3f4de21affaa06e6	0.0009119636373073586
123	0x3f4a2cfad060e0d0	0.0007988190343502181
124	0xbf848d1681825418	-0.010034728839210458
125	0x3f71f08c0a60d025	0.0043797941526016225
126	0x3f7cd13a29bff131	0.00703547210650539
127	0xbf7a39b0124bcdcd	-0.006402671603371113
128	0x3f73da2656041aa6	0.0048467156887059045
129	0x3f703d50ca8dafc1	0.003964725104065482
130	0xbf802da5bb024236	-0.007899565476948128
131	0xbf6db425498f3cb4	-0.0036259392040630337
132	0x3f7d161400c4aad3	0.007101133476946147
133	0x3f656f59a638baf1	0.0026165724719001628
134	0x3f6e999c5b851fa5	0.0037353566987441016
135	0xbf9312cef690b90d	-0.018626436041977935
136	0x3f84096804e02bf9	0.009783566139978094
137	0xbf50d7694a81a94c	-0.0010279205544302004
138	0xbf746c7a700fd9db	-0.004986265442303818
139	0xbf80dd95916c461d	-0.008235138416725235
140	0x3f770e14d851c06f	0.005628663469096392
141	0x3f8589aaa70f3c12	0.010516484473468455
142	0xbf6aee17749f23c6	-0.0032873590580248828
143	0xbf822ab268c6ee32	-0.008870500395338519
144	0xbf433895eeb98b71	-0.000586579522359505
145	0x3f66c6e54fc1857d	0.0027803877583642543
146	0xbf8d8f6a91d14052	-0.01443370110987999
147	0x3f53ef4475cce346	0.0012167137676454983
148	0x3f7dd1bbeea85deb	0.007280096159341091
149	0xbf54cf5479c46726	-0.0012701344449567802
150	0x3f80fef90f0a6e86	0.008298822185046417
151	0xbf9a009c9c2233f7	-0.025392958669318202
152	0xbf7c2fc8bf9a7f6a	-0.006881508039128773
153	0x3f7f1e9779f00233	0.007597533897751907
154	0x3f8fe683c3a4b42d	0.015576390655576667
155	0x3f68ae29f1c9e6c2	0.00301273529322263
156	0xbf735af404b51669	-0.004725411602810683
157	0x3f85bd66a3598a26	0.010615159854926292
158	0x3f80e6a182f04541	0.008252393539836535
159	0xbf87532a32a4793c	-0.011389093084798511
160	0xbf4d9395bce81fd2	-0.0009026032583401239
161	0x3f7157bd3accf153	0.0042340652260544785
162	0xbf7239a298a2e6ba	-0.004449496404214487
163	0x3f8010005144324a	0.007843019943288305
164	0xbf70397a61a918de	-0.003961065342599405
165	0x3f8c1944b254fdc9	0.013720070545445122
166	0x3f80dac0eb431cef	0.008229739360457759
167	0xbf96d47ba9a42e42	-0.022294933537564406
168	0x3f8a88da66cfabdb	0.01295633913283283
169	0xbf8acdf860b1fc5b	-0.013088169527916962
170	0xbf9bac12d4f3af62	-0.027023596046020677
171	0x3f045ea122ca6162	3.885201690429181e-05
172	0xbf7c93183179c4fa	-0.006976217751444519
173	0xbf5eb81dd85f3310	-0.0018749515015656394
174	0x3f83a4cb8226bcd3	0.00959166518154434
175	0xbf842c27b905628d	-0.009849844297307864
176	0xbf9389ea1ed559ee	-0.01908078969185028
177	0x3f7a498e89c2188f	0.0064178054709655005
178	0xbf70e17b7db12075	-0.004121286760956013
179	0xbf5c201febd7e6d6	-0.0017166434985242305
180	0xbf911e2689b4cf54	-0.016716577677655067
181	0xbf75c755f73e56b8	-0.005317054561506822
182	0x3f739e3e74d3bac9	0.004789585085048295
183	0xbf5eaded48ded8ce	-0.0018725220902360731
184	0xbf58ad64d3f9cecd	-0.0015061840676055427
185	0xbf87e0ecfc522494	-0.011659480524274714
186	0xbf8343b477cbcb83	-0.009406480699430514
187	0x3fa12aba34a26bea	0.03352910892973411
188	0xbf7e4ec77806c71c	-0.0073993484260641805
189	0xbf93b9c7b30f0c29	-0.01926338224781091
190	0xbf6256d7b0bff425	-0.0022386753753367455
191	0x3f88c1629dfe32a7	0.012087603041231644
192	0xbf863ccf49242d5f	-0.010858172816844812
193	0x3f92808dff391fb3	0.01806852216967032
194	0x3f7a296d2346f4ad	0.00638716346696559
195	0xbf61667bb828e9ef	-0.0021240631479291154
196	0xbf87df44bfe0c17d	-0.011656319718981173
197	0x3f83aaac37476ae1	0.0096028761262707
198	0xbf8471166e8dc104	-0.009981322525817855
199	0x3f80b34ebf3970c2	0.008154502115921839
200	0xbf47aea037369ae8	-0.000722721319495215
201	0xbf90ea5edf65700e	-0.01651905287268112
202	0xbf8bc8b31804da2f	-0.01356639782953292
203	0x3f8961a073615080	0.012393239518282195
204	0x3f8820285d6e3312	0.011780085898658341
205	0xbf8e0433f592263e	-0.014656454021195416
206	0x3f91efc7b415edee	0.017516250959927086
207	0x3f923b70c39514cd	0.017804872453116617
208	0xbf7244d779d5b1c6	-0.004460183813858659
209	0x3f7c53706b93b92f	0.0069155112662271775
210	0x3f7b5cf8f3849349	0.006680462327754829
211	0xbf7454e0d9035d5f	-0.004963758765561848
212	0xbf888fe4bc8e870d	-0.011993205074591918
213	0x3f6b68bc3d96fe97	0.0033458401273661165
214	0xbf87e746228b0229	-0.011671588830155137
215	0xbf471ea402e8e6d3	-0.0007055569493054865
216	0xbf8b96b3f6a8ade3	-0.013471036877567627
217	0x3f734d8a62f4cf7c	0.004712620327428026
218	0x3f7bf2f9752f9ef6	0.006823515362135648
219	0xbf760672cf41faec	-0.0053772434949894525
220	0xbf93ceb3d77faab1	-0.019343194988247606
221	0xbf8f0c246cb6f912	-0.015159878318510542
222	0x3f981f45418d3c9d	0.023556787610968234
223	0xbf814efdcecda4c9	-0.008451445459018452
224	0xbf79dfa12cdd2664	-0.006316785422151836
225	0x3f7ea1689e9e04cd	0.0074781500533173785
226	0xbf6eb990e1c937e1	-0.003750594112978498
227	0x3f33b1583cfc05e5	0.00030048755887443344
228	0x3f914949678ee48a	0.016881129213036895
229	0xbf4b7a61ac5f8b97	-0.0008385636253901316
230	0x3f658a97cac290ff	0.0026295628250229126
231	0xbf766fd9be8422c0	-0.005477762759490801
232	0xbf96edb41f6af0e9	-0.022391142289721087
233	0x3f85ac40d2554b13	0.01058245317350307
234	0x3f774188d4feca2a	0.005677732944536143
235	0xbf73b380b4e37d4c	-0.0048098590470709406
236	0xbf71f2e113bac9df	-0.004382018286991556
237	0xbf87ff2d3576f9af	-0.011717179483522992
238	0x3f87a1b46676f4af	0.011538895966504674
239	0x3f622cdf8ae2eaf8	0.00221866284036076
240	0x3f48610d4cf38ddd	0.0007439913696569118
241	0xbf720e7ad711a37e	-0.004408340305510515
242	0xbf85b68ad80d9798	-0.01060207816926688
243	0xbf65e09bf5a8fc74	-0.0026705785833481214
244	0xbf929ab4c989682f	-0.018168282318903713
245	0xbf77c7f1b66a4d5f	-0.005805916013417927
246	0x3f83dd338d7a78ff	0.009699251895025627
247	0x3f634387c8a90628	0.0023515369441902308
248	0xbf90ef05a5fb860d	-0.01653679681374425
249	0xbf3eaa7275ac39c6	-0.0004679231112029416
250	0x3f7f3fbb156633aa	0.007629137797619126
251	0x3f7d133207a53279	0.00709838431278042
252	0xbf6b97f355749e62	-0.0033683540929308345
253	0x3f82f4d6cdc5621d	0.009256055979379113
254	0x3f64cb77bc1e1239	0.0025384272166226987
255	0xbf86827cdc43310c	-0.010991073104741143

pesos_1 f8 [128, 64]
0	0x3f86d31949c79614	0.011144826473308313
1	0xbf70175616bff11f	-0.003928505215295779
2	0x3f562ca319d34303	0.0013534157545118115
3	0xbf41872c7a0b8a49	-0.0005349127933097021
4	0x3f488f1224a1e997	0.000749477251943009
5	0x3f7649c11c706318	0.005441431369967352
6	0x3f792696a44f91f4	0.006140316433605342
7	0x3f6d0744cc6606c6	0.0035435050696726892
8	0x3f94d923d7dee4f3	0.02035957341260981
9	0xbf17ee805c5f6218	-9.129198505720309e-05
10	0xbf95e509927fdc18	-0.021381520811669302
11	0x3f92cbf3862814ef	0.018356137336032082
12	0x3f75857af3be5271	0.005254249841432399
13	0x3f65b5c6c037da31	0.0026501542904455934
14	0x3f7eca5fb72c276f	0.00751721753000277
15	0xbf6d97948da47667	-0.0036123181754550873
16	0x3f640971e109de2e	0.0024459099006966167
17	0x3f82bd08b9b87384	0.00914961640142465
18	0xbf987a1f2997a6be	-0.02390335742339888
19	0xbf7723d9e27b840d	-0.005649424659822888
20	0x3f673d42a3042a0c	0.002836828374829686
21	0xbf6173e032803ed7	-0.0021304491856496232
22	0x3f900a6b60d6ca16	0.015664747033676894
23	0x3f88398468677ab9	0.011828455387271718
24	0xbf6d8b5b40d55625	-0.0036064893999234898
25	0xbf51bf90d0442695	-0.0010832704729772148
26	0xbf749326a22ef293	-0.005023146545621987
27	0xbf80a5fdb04b346f	-0.008129102652129043
28	0xbf8b0817058542d5	-0.01319902406308541
29	0xbf886c7c93b62a08	-0.011925671823310516
30	0x3f825ee8cdd1435f	0.008970087796258573
31	0xbf8c47ead1b2ecd4	-0.013809046291831363
32	0xbf704e898e0ac23b	-0.003981149028434101
33	0x3f80c2a0b830b800	0.008183723088304617
34	0xbf74d8836ee9bd01	-0.0050892957793700075
35	0xbf426418ef14de6b	-0.0005612489459627228
36	0x3f8606f89ea0ad35	0.010755483952456938
37	0xbf756c4e3eadcfe2	-0.00523024143591397
38	0x3f82a99e1569ab0a	0.00911258223387314
39	0xbf6afa12fc27d67e	-0.0032930727768370463
40	0xbf6a49449631fffd	-0.003208764990233702
41	0xbf0167f8dad28afc	-3.319957918647938e-05
42	0xbf5d1ba45d830e42	-0.0017766099099824216
43	0xbf7746fa79b4c236	-0.0056829246707797345
44	0xbf84a31f7adda575	-0.010076757371012527
45	0x3f904243537a25fb	0.015877773256340415
46	0x3f4eb9c1797c990e	0.0009376711559283839
47	0x3f6ec158dfc7fd2a	0.0037543044875289104
48	0x3f435d8bb9537272	0.000590985512328125
49	0x3f86e067e5d50039	0.011170207692544053
50	0x3f701b31bc617d11	0.003932184487069238
51	0x3f80d70eb400eb67	0.008222689502977066
52	0xbf618cae046b19ad	-0.0021422766470522076
53	0x3f6a4c732b800bd4	0.0032102822697210685
54	0xbf7ca15964ce0125	-0.006989812082679491
55	0xbf964e68ffdd23ef	-0.02178348600071794
56	0xbf6848d2c3ffc922	-0.0029644123569535644
57	0xbf9459eb8fe410cf	-0.019874268205072817
58	0x3f626bcb2e43537d	0.002248665654500602
59	0xbf6b13b0a7c835f8	-0.003305287389827379
60	0x3f76015c4139cdf1	0.005372391100184158
61	0xbf6ecd67d6d1ff57	-0.0037600544079054265
62	0x3f94a298accc48da	0.020151505991699327
63	0xbf8d5ae178f1fd26	-0.014333497527558036
64	0x3f75d995c698b180	0.005334458409873455
65	0xbf7374ec207c3221	-0.004750177736934564
66	0xbf82b06aecbadeef	-0.009125552510667016
67	0xbf425580b8605fdf	-0.000559509135885424
68	0xbf848dbae0f6f253	-0.010035953512550188
69	0xbf90de6928518424	-0.016473429761735173
70	0x3f959e2aa4a0e652	0.021111170099379635
71	0xbf4fef5cf4c7b9ae	-0.0009745792281686172
72	0xbf62c7b1aaa8e13d	-0.002292487149386484
73	0xbf882fe26b68329c	-0.011810082342912857
74	0x3f6a2674f8bb1e93	0.003192165813604772
75	0xbf614256c70bdb8a	-0.002106828200676818
76	0x3f4c01621fe63fb8	0.0008546570896203953
77	0x3f7cfb3b7e4dd299	0.007075531383510602
78	0x3f73b1b2c27ebbdd	0.004808138160952572
79	0x3f52916d6545c83c	0.0011333053890578834
80	0x3f9809f7e6775226	0.023475526277097945
81	0x3f37e8934dbb55d0	0.0003648147228266481
82	0x3f84fe4724312434	0.010250621597281385
83	0x3f7d3014e8f7d8fa	0.007125932388126305
84	0xbf8d8ec7447eeee8	-0.014432484414889271
85	0x3f24025c87a79511	0.0001526582671679618
86	0xbf7fdfbd1ac1311d	-0.007781733216756484
87	0x3f6a6c92174dfae8	0.003225598653841078
88	0xbf76abd130587197	-0.005534951347297221
89	0xbf6dc1f185e87e07	-0.003632518505824359
90	0x3f9b1f62715a1190	0.026486910026976285
91	0xbf96d9d472f9af8c	-0.022315330045259027
92	0xbf33384a681c71a7	-0.00029327217645105447
93	0x3f876ca79a3c3914	0.011437711138139885
94	0x3f87b8c1cfc535c0	0.011582864907405788
95	0xbf8f603e2a6ab105	-0.015320287389237306
96	0x3f52e562fc120941	0.0011533228537535386
97	0x3f8f442096d0741b	0.015266661264883344
98	0x3f8dd0e0a742d370	0.014558558563615626
99	0xbf8114e451ba08e6	-0.00834062933359232
100	0xbf8761a8ec15d834	-0.01141674013591052
101	0x3f7132bb7f740c29	0.0041987728247958956
102	0x3f6e38172eaed505	0.003688855436360885
103	0x3f893b0bc55e8714	0.012319652519923653
104	0xbf9348a3a579c0b4	-0.018831784224347017
105	0xbf940911ec2cd5de	-0.01956584934233329
106	0x3f8b610029d0b5b2	0.013368607784367412
107	0x3f822ef6b7b41023	0.008878638726407989
108	0x3f7ead39b82699db	0.007489419428031908
109	0xbf8768cc9d7b7b1a	-0.011430357509593803
110	0xbf2e1851365bc7df	-0.00022960654603526497
111	0x3f8220682648daef	0.008850873630860316
112	0x3f7c1642160a15f4	0.00685716452483608
113	0x3f77b3a11b528db9	0.005786542246969111
114	0xbf7d84411e48fd00	-0.007206205719341385
115	0xbf62c93cc2bcf1ad	-0.002293223069413672
116	0x3f34324141044c8d	0.00030817120661303586
117	0x3f80d8ad3d66048e	0.008225778042062506
118	0x3f7516008e8d11b3	0.005147936034351752
119	0x3f87e2ad1abf46ed	0.011662819269904168
120	0x3f6c7a5f10915b32	0.0034763199551365526
121	0x3f90d557884fd0a1	0.016438834852991694
122	0x3f7ff0f0493b99cc	0.007798136346286854
123	0x3f887b4fbb09b07c	0.011953947921220946
124	0x3f7acdbb0dc98d8a	0.006543856314780947
125	0xbf795bafde29c829	-0.006190955146495405
126	0xbf794ea4402671b6	-0.006178514102796509
127	0x3f8cde2a0dd2bb33	0.01409561972317661
128	0x3f7b09601d3441b7	0.0066007379966923
129	0x3f7b96040dbac663	0.006734863123413956
130	0xbf841c2e5c31ba95	-0.009819376171632125
131	0x3f6dd474e6697e76	0.003641346283344944
132	0x3f6aa7a81e5dc356	0.0032537730757486267
133	0x3f826092c06a6236	0.008973261353547018
134	0xbf71b59a94f0de2a	-0.004323581538350699
135	0xbf616db3597e5080	-0.0021275046273761533
136	0xbf76bb60128bd00c	-0.005549788744918526
137	0x3f7b17087e9468e5	0.0066137630285771675
138	0x3f7d7362beea9b94	0.007190118528035767
139	0xbf7a45dda9b11631	-0.0064142855363278775
140	0xbf9520860bc4f688	-0.02063188025316845
141	0xbf78677439f5dc1c	-0.005958036431699145
142	0xbf92d4f6d6618078	-0.01839051898457497
143	0xbf92361eb1419c9b	-0.01778457600485393
144	0xbf708e7b8aa6463a	-0.004042131981252301
145	0x3f8bbdc3d41cd5ea	0.013545541678108248
146	0x3f8a3278d4f24541	0.012791580198867282
147	0xbf6a0d330a9e3547	-0.0031801220802153726
148	0x3f845aa393935dda	0.009938505116607144
149	0xbf75e90c7b86a329	-0.005349205741745058
150	0xbf81b94dfc6807a7	-0.00865422178776838
151	0xbf88efed9dcf226c	-0.012176376703693502
152	0x3f5e39d667647657	0.0018448442256792286
153	0xbf6e6acdf2ef70f5	-0.0037130377236121955
154	0x3f8283b283ee7ee1	0.009040255213960293
155	0x3f40de6577b5135f	0.0005147929618166505
156	0x3f642414b98f9329	0.0024586109907310983
157	0x3f868cada498ab42	0.011010510049421666
158	0x3f64e95020911a13	0.002552658556427953
159	0xbf94c86de035fb68	-0.020295826730485272
160	0x3f8e32aa8680837e	0.014745075444865693
161	0x3f90a69868b6b18a	0.016260510817731645
162	0xbf82146776f7e31a	-0.00882798034489123
163	0xbf7c2a0f7e2a9ef3	-0.006876049536607576
164	0x3f885374459a553d	0.011877926229582609
165	0xbf86d5c307ea2692	-0.011149905852352125
166	0xbf413fe6adb625eb	-0.000526416431442187
167	0xbf6ebe4aa74c8ef3	-0.003752847488060479
168	0x3f8c6be7ce6a31a1	0.013877688395290745
169	0x3f6018a3fa16fd62	0.001964874522599012
170	0x3f88a3c27c954826	0.012031096865630597
171	0xbf574f96333630fa	-0.0014227835461922398
172	0xbf8af8b427b0022c	-0.013169677220504182
173	0xbf638519a4ee3476	-0.0023828030456969863
174	0xbf7f12ad9f566c4a	-0.007586172306584047
175	0x3f758a377b30c05c	0.0052587668642872475
176	0xbf5534994cad70f8	-0.0012942788186683356
177	0x3f90e740c1d9bff3	0.01650716002626491
178	0x3f6f978dc5f83a6d	0.003856446171773434
179	0xbf6c53a5691ddc3c	-0.0034578543354047125
180	0x3f756f720b588e3f	0.005233235822319992
181	0xbf8da3312841172e	-0.014471420327150843
182	0xbf913d3be48ac429	-0.016835151504612043
183	0x3f833d5009050677	0.009394288325555096
184	0x3f5ea8aab58cb04e	0.0018712679941002178
185	0x3f95a483a620241a	0.021135384573458628
186	0x3f7e714dd562e461	0.007432273900286197
187	0xbf90fe45fd02cec7	-0.01659497601276774
188	0x3f798281bb4cd0a3	0.006227976574155888
189	0xbf84cd7478c12584	-0.01015749925149368
190	0x3f38256ce0e16d49	0.0003684416595938945
191	0x3f73c6d83cecf364	0.004828304938936909
192	0xbf955ccfc52ab7ba	-0.020861860665426703
193	0x3f870cbd2f7b5c37	0.011254766475231033
194	0x3f848144098cbeb6	0.010012179891048727
195	0x3f64cdf7fc789a47	0.002539619777752553
196	0xbf4f8e4c3fad6a8c	-0.000963008147077575
197	0x3f632129cd5451c9	0.002335149426139636
198	0xbf6f13a817e44e3d	-0.0037935526917267912
199	0xbf866995010decc0	-0.010943569273641152
200	0xbf61590d79657f4a	-0.002117658917242614
201	0x3f8c2452654385a2	0.013741153445553437
202	0x3f8799e62aa8b792	0.011524007965899394
203	0x3f21c8431b905d0b	0.00013566798386997094
204	0xbf848f9de7171e3e	-0.010039552321258968
205	0xbf96775f7b2fff34	-0.02193974675537831
206	0xbf8d54ccc2a9afc1	-0.014321899119032257
207	0xbf48bd2ac5d21c02	-0.0007549723483329942
208	0xbf6faa247ed1e898	-0.0038653099823565233
209	0xbf761bf5055d55ba	-0.005397755730731141
210	0xbf6e60dc2490adf1	-0.0037082957901668425
211	0x3f666251a0b01550	0.0027324289599187992
212	0xbf92f65a9eb90e00	-0.018517890870738185
213	0xbf8450ada71c88bc	-0.009919506704651908
214	0xbf6bba62229ae599	-0.0033847729399353985
215	0x3f65838b35844dbc	0.002626201527286402
216	0x3f8308d248cbb543	0.009294169279622571
217	0x3f868a9f24543f80	0.011006587310958826
218	0xbf6b5672d903a6ac	-0.0033371203536390528
219	0xbf8ea8ce85ed5286	-0.014970410787705345
220	0xbf7769ea91e368ab	-0.0057162440191069015
221	0xbf625340387929b9	-0.0022369627293176955
222	0x3f83a8c3e1c5ca26	0.009599237754376832
223	0xbf4a0f0a757b036d	-0.0007952500409019577
224	0x3f84db7d9459f3c4	0.010184269990753843
225	0x3f40f471cb8e175f	0.0005174213066403247
226	0xbf918cb7c5cadea6	-0.017138358542722408
227	0xbf5c0d9749bdc239	-0.0017122247145061732
228	0x3f7111892fec2a48	0.0041671141505142464
229	0x3f7b974dcf5c516f	0.006736091561624454
230	0x3f8c7b5d3fa340bd	0.013907173637932474
231	0x3f79a2eeb39df649	0.006258900097120775
232	0xbf7b3552fde7e19f	-0.006642650782389486
233	0x3f92cf88f1c9c326	0.018369807965828454
234	0x3f96195db66e6719	0.021581138858528612
235	0xbf95032a505d0c82	-0.02051988711833675
236	0x3f8ee9e71383d3f3	0.01509457138352308
237	0xbf7c3a653c4eadf2	-0.006891627742259031
238	0x3f6ded66fb6382e0	0.0036532412878930026
239	0x3f5d6a8163bb37d2	0.0017954124040673214
240	0xbf4e2aa153581ac0	-0.0009206092569805299
241	0x3f719edd2c467442	0.004301895100437271
242	0x3f74060c97e1b309	0.0048885814595507416
243	0xbf904110c199dfd4	-0.015873205009910255
244	0x3f867b4b661a58ac	0.01097735314696665
245	0x3f84e98f7b9273f0	0.010211106260891584
246	0xbf64a30e32ee1439	-0.0025191571543836913
247	0xbf7bd4ee237ecbe2	-0.006794862965693734
248	0xbf796649a6b0eb3c	-0.006201064777139827
249	0x3f8a051f8797b320	0.012705084157425939
250	0xbf79e7129b56104b	-0.006323883707754228
251	0xbf7e7006d7a780f4	-0.007431055763362549
252	0xbf821578451470d1	-0.008830012901448832
253	0xbf91abaa87c36ee5	-0.017256416832295413
254	0xbf61b1df7d7f38e1	-0.0021600117724808053
255	0xbf2dc03d1cdfc40c	-0.0002269816017697327

pesos_2 f8 [64, 32]
0	0x3f8d700b7cdf3a99	0.01437386488751473
1	0xbf702625fba22dde	-0.003942631121514021
2	0xbf85b284b93e561c	-0.010594403174574878
3	0xbf907007243d5de2	-0.01605235251130733
4	0x3f7845f540f566b4	0.005926092169227171
5	0x3f975e27dcd17620	0.022820113041566725
6	0xbf872bd52df24e61	-0.011314073052097475
7	0xbf4dc39db4fe8c56	-0.000908329015136276
8	0xbf83e591e283eab9	-0.009715213513563513
9	0x3f79ba82a143a071	0.0062813856822928485
10	0x3f96055c22d91b76	0.021504821421582908
11	0xbf586d5dffa2d419	-0.0014909189181200376
12	0xbf7f5f90cc53395d	-0.00765949785018302
13	0x3f92226853f434d5	0.017709379314557367
14	0x3f88a758495db860	0.012037935008006595
15	0xbf830d672c2a6df2	-0.009302907977420258
16	0xbf8b6f45c6d69672	-0.0133958293252576
17	0x3f9493a13b1885bb	0.020094413024826823
18	0x3f9d37c33c29c519	0.02853303007799921
19	0x3f89e42476660b40	0.012642178405035787
20	0x3f8c69614655602a	0.013872871359737433
21	0x3f80837ce144f403	0.008063293099093377
22	0x3f886edfd0976200	0.011930225899889457
23	0x3f89cd27e7bb6bf8	0.012598335036662064
24	0x3f7caee29a6a2f07	0.00700272099369293
25	0xbf4dcde7eb7937ec	-0.0009095556660640969
26	0xbf58ed9e96e6a132	-0.0015214966511881253
27	0x3fa13d48a5552e91	0.03367068308088251
28	0x3f84286625e63197	0.009842680007545108
29	0x3f854fd02f136a2d	0.01040613788284358
30	0xbf7717bf7455ac4f	-0.005637882107616467
31	0x3f8000f6be15710d	0.007814338374992258
32	0xbf8cb87d1a09da1e	-0.014023759228831752
33	0xbf8a425ff7746cc3	-0.012821912516804429
34	0x3f5ce63a3344323c	0.001763874851408733
35	0xbf75a3949ddabb7d	-0.005282955678622578
36	0x3f68ef962a6f7bc4	0.003043931286341702
37	0x3f67e538c2eabed2	0.002916918623064515
38	0xbf611738b14961b4	-0.0020862681651971585
39	0xbf819887348f8d9b	-0.008591705600287372
40	0x3f7fea296a6269af	0.007791673450038435
41	0xbf845667598476e7	-0.009930426997523735
42	0x3f6cfc67e155b430	0.0035383252058438716
43	0x3f9339823d00efda	0.018774065945976172
44	0x3f7fd31d827088fd	0.007769694587326234
45	0xbf9287b5e3fb5a84	-0.018095819511325675
46	0x3f644e1ca1ea98b9	0.0024786528805008337
47	0x3f92455b237d5012	0.017842697182757723
48	0xbf7474773ea69c30	-0.004993882941938074
49	0x3f7aeb259a0d32c0	0.00657190979184169
50	0x3f8d25faf8a7c70f	0.014232598031387348
51	0xbf784bf3592670e8	-0.0059318071165785705
52	0x3f971b8f08964194	0.02256606569204818
53	0xbf91d5aefe7057fe	-0.01741670062991573
54	0xbf76855a8c1d7612	-0.005498269749151701
55	0x3f7c807cda11e6d5	0.006958472921832122
56	0x3f778ed32a43167b	0.005751442779176603
57	0x3f83392f273d081f	0.00938641394134626
58	0xbf60309298dee11f	-0.001976286242065708
59	0xbf76c722ceb09c90	-0.005561004606568734
60	0x3f8c9b5f47eef872	0.013968223936782407
61	0x3f7d609f0403ac0f	0.007172223238948851
62	0x3f82eee13767e7f3	0.009244689467767108
63	0xbf83e21c54f04742	-0.009708615629310583
64	0x3f820eb212289673	0.008817092112688862
65	0x3f8345b8367e8720	0.00941032329848529
66	0xbf77250ea56c5ae4	-0.005650574885996493
67	0x3f9b06fbae688079	0.026393826026947374
68	0xbf3636ab7eedcbf2	-0.0003389519396740918
69	0xbf48e5ed8ce3f079	-0.0007598314203103438
70	0xbf7241d824a0e227	-0.004457325276284985
71	0x3f8ca07004307741	0.013977885368202105
72	0x3f88a394c1f56daa	0.012030756158018036
73	0xbf85e334b95f11aa	-0.010687267214856206
74	0x3f64350a58e9c326	0.002466697892764452
75	0xbf539c3892124b63	-0.0011969139525589082
76	0x3f803297db42a941	0.007908998850628126
77	0xbf8d9d1e914b1502	-0.014459837731360729
78	0xbf5ec98fe8e4acfb	-0.0018791108482883445
79	0x3f92224ac4bf244a	0.017708938845121737
80	0x3f820a5799e1684f	0.008808788665351978
81	0xbf65d38716bde757	-0.00266434082544446
82	0xbf932037189ebe14	-0.018677578809443388
83	0x3f8da892a11cc004	0.014481683294064858
84	0xbf70ff1d2cc98bd7	-0.004149545635843097
85	0x3f858ad885ded5a0	0.010518733582879858
86	0xbf93e774a4e56e1f	-0.01943762070128063
87	0xbf6b80ccc4bb060d	-0.003357315004763667
88	0xbf696d823a834c69	-0.0031039756323508094
89	0x3f70c93d3269cabe	0.004098166513915201
90	0xbf6cebb64ec345a9	-0.0035303650566695555
91	0x3f8058993249d391	0.007981488082103446
92	0x3f741a25b79c9e53	0.004907748539870821
93	0x3f9259fdee98c30b	0.017921416938579997
94	0x3f4598e6fa84d5e4	0.0006590965104240035
95	0x3f94a414eab53017	0.02015717203657638
96	0x3f7e8250e27851a1	0.007448497729928867
97	0xbf511fd067278f67	-0.0010451827225716694
98	0x3f84d35dffff029d	0.010168775915987022
99	0x3f4317d9dae177ba	0.000582677244675748
100	0xbf6671cfd62e8d82	-0.0027398165998008825
101	0x3f8446e71a16138f	0.009900861247624152
102	0xbf87277303d1d019	-0.011305712274612788
103	0x3f877982721414e6	0.011462229830167602
104	0x3f8b3c15b8fe9dc0	0.013298196514212601
105	0x3f67119fefdb7bf7	0.002816021324960168
106	0x3f8379c4f3339a89	0.009509600326464767
107	0x3f8c6e8c2985af42	0.013882727639348173
108	0xbf5fa5c5e8cf5b21	-0.001931613226806746
109	0x3f97d5340ae25f6f	0.023274243511508027
110	0x3f89f319746c519a	0.01267070662064711
111	0x3f8dce7c613ee189	0.01455399677057369
112	0x3f79431506a6b15c	0.006167490132082367
113	0x3f52bd277c236aec	0.0011437306971432927
114	0x3f7517b54564ddb0	0.0051495629216370825
115	0x3f92855ab04bb070	0.018086831102593626
116	0x3f5921d51677d536	0.0015339451728072057
117	0xbf8e3a6c4f3c7a54	-0.014759870689485734
118	0xbf7d96ec4295524e	-0.007224009409885724
119	0xbf80ec78d7829723	-0.008263534619185336
120	0x3f9597aa3fc201c3	0.021086368695707024
121	0x3f8909e7ce498691	0.012225924475561175
122	0xbf63137f90c7532d	-0.0023286334528428627
123	0x3f8bd2bb1c9a3e5b	0.013585531053904967
124	0x3f738c2df7c16e44	0.004772357522678631
125	0xbf33ea97fa17adc0	-0.00030389986394993226
126	0xbf70b65b2f049a4d	-0.004080158411204749
127	0xbf7994cc33995016	-0.006245420133911514
128	0xbf4a429bcdbdbdc9	-0.0008013973961009054
129	0xbf8669f3b971e993	-0.01094427499468934
130	0xbf56553dd1b7386d	-0.0013630965903419737
131	0x3f8648b58d9a5191	0.010880869277834633
132	0xbf50942210a08fe6	-0.0010118801751639538
133	0x3f8e10bb964a6521	0.01468035271072893
134	0x3f74d98576ba1aee	0.005090257017974704
135	0xbf5620040edfc153	-0.001350406611433004
136	0xbf8fddd0674e190d	-0.015559795525188958
137	0x3f3ceb4f1e86afa5	0.0004412716066564077
138	0x3f722cb36fe7f4d3	0.004437161375333082
139	0x3f6def0975258810	0.00365402075947064
140	0xbf729819a8096598	-0.004539585323607119
141	0x3f87a8913ff90b02	0.011551985516353284
142	0x3f62e8d1831097c4	0.0023082820921613584
143	0x3f82c7d01a49e843	0.009170175363795724
144	0x3f7f01677dd31c2a	0.007569698585206766
145	0xbf6d93c9eb3899fa	-0.0036105102278896047
146	0xbf80d960356ba959	-0.008227111463800328
147	0x3f83a08d9cde5f90	0.009583574628592634
148	0xbf84583e86ec2960	-0.009933937542446258
149	0xbf96895f9953ba38	-0.02200841306051357
150	0x3f8f797bef0479ba	0.015368431312308018
151	0x3f70dc92bc4f7fe9	0.004116604982272045
152	0x3f938b8b5c56d034	0.01908700705617168
153	0xbf8a19b00d883d6e	-0.012744307911843857
154	0x3f6310222003049e	0.0023270288948827452
155	0xbf42bd9f1de7ff25	-0.0005719210565189077
156	0xbf2b2dffcdd4cdbc	-0.0002073645363594843
157	0x3f8301b6e3c4b7ae	0.009280613733235157
158	0xbf82d1f6d454daad	-0.009189537386743519
159	0x3f7fad8696001330	0.00773384640342982
160	0x3f8c2b2dc475f4d5	0.013754231985098656
161	0xbf6a0b8e54ebd6f4	-0.003179338447234831
162	0xbf88db36d080134d	-0.012136867750095393
163	0x3f7d23558c8fb5b8	0.0071137754211866785
164	0xbf835d748adf41b9	-0.00945559548191076
165	0x3f822a510a037c1c	0.008869774931040957
166	0xbf7ddf096096c060	-0.0072927824307243705
167	0xbf88881c6d07252e	-0.011978361203449053
168	0x3f8f72904d170a08	0.01535523162136078
169	0xbf96d2378307b5c1	-0.022286288616603537
170	0xbf79f1e497b57371	-0.006334202709095447
171	0x3f903071d0cbe5a6	0.0158098014535192
172	0x3f40ad3cb6afa36d	0.0005089327290735808
173	0x3f6d92cc85694c9b	0.0036100382379032465
174	0x3f8245d0438fd22b	0.008922221242735414
175	0x3f4db42ce3f83a95	0.0009064883415151487
176	0x3f65eb8ff82f1b96	0.0026758014587104457
177	0x3f7597ae4aef891d	0.005271607237747025
178	0x3f674fca5e64aa6a	0.002845664264119298
179	0xbf43dcc607e02f12	-0.0006061522433369068
180	0xbf6ad104a789eb5d	-0.0032734957606498764
181	0x3f8459e5f3df9963	0.009937092308928091
182	0xbf651ca816b6cc27	-0.0025771410925812424
183	0x3f83e6e30780b9e3	0.009717725435703655
184	0x3f8894719d8336f4	0.012001884097482464
185	0xbf7c11aa36adb742	-0.00685278405840767
186	0xbf8abdbca5c0038a	-0.013057206924715254
187	0x3f76fc2d40548e46	0.005611588251926819
188	0x3f7e17bf89dfbd58	0.007346866796054861
189	0x3f4d0c98482283be	0.0008865111888277583
190	0x3f7793d4b51c41c2	0.005756216896557866
191	0xbf727504f7d643df	-0.0045061296526833486
192	0xbf3cc81354cb65d7	-0.0004391715236074767
193	0x3f844d02cc403560	0.00991251169036883
194	0x3f7ffd1c9a240347	0.007809745528221174
195	0xbf6885bf9639ee08	-0.002993463700304625
196	0xbf7cfaf7dea85e0f	-0.007075279465901043
197	0x3f6835a9fb0796bf	0.002955276482896035
198	0xbf8b1e492438f255	-0.013241359155579927
199	0xbf5bb9d41edb0d69	-0.0016922542085218934
200	0x3f8cb80f53e4e63e	0.014022941348787229
201	0x3f4569aa04087674	0.0006534652857827631
202	0xbf48f7677881eca8	-0.0007619147518335328
203	0xbf94405ca258c362	-0.01977677098165332
204	0x3f7cf78c2b8c8d21	0.007072017230515899
205	0xbf733604d29f0ba8	-0.004690188254190021
206	0xbf726eade0194c02	-0.004500083161093295
207	0x3f4507663cf09c03	0.0006417512139521578
208	0x3f7ae57278511b37	0.006566474102391243
209	0x3f916c3d1a696c5f	0.017014460312889997
210	0x3f7d11215d3faa0c	0.007096414879905765
211	0xbf583dcf95928975	-0.0014795806112393982
212	0xbf9425ecc725add1	-0.0196759220647616
213	0x3f4e7172a867a417	0.0009290513851826246
214	0x3f9020cfc63f47b7	0.015750166392372224
215	0x3f8aff0f95ca3ce4	0.013181802519538662
216	0x3f904808ec80f959	0.015899791178747822
217	0xbf917e69c16a5da2	-0.017083790235657433
218	0x3f8d974b369c026f	0.014448726276442529
219	0x3f74e8bcf6c8db84	0.005104768887170933
220	0xbf90409120b0679b	-0.015871303196128044
221	0xbf6ec63519505253	-0.003756622036698945
222	0x3f7a99b74cc36753	0.006494251265587741
223	0x3f8735252a03a21f	0.011331835121795085
224	0xbf724267313b309a	-0.004457858176191954
225	0x3f723ba03bf85fb9	0.004451394953797144
226	0x3f58eba875104908	0.0015210290041563507
227	0x3f899f4f2049cbfd	0.012510889218196647
228	0xbf79557c4adf81f4	-0.006185040967438205
229	0xbf8352e8d96ceb32	-0.009435481200502947
230	0xbf8631beee7ff013	-0.01083707013457772
231	0x3f620fd9d3104c51	0.0022048239120607068
232	0xbf8c7a0dc940d2b4	-0.013904674247990335
233	0x3f858304efc4c0c2	0.010503805701404526
234	0xbf64e0ca8fdb6310	-0.002548595074454936
235	0xbf4f24943410aedc	-0.0009504054688753388
236	0xbf661251a4665f51	-0.0026942820142713893
237	0xbf9599e2d96c58aa	-0.02109484149976796
238	0x3f8f8efe4ffb92ca	0.015409457031134183
239	0x3f5d079214f0e996	0.0017718245105827527
240	0x3f85f2ec11394441	0.010717243457437077
241	0x3f8964e0f2fe9bb2	0.01239944211540753
242	0xbf8e555a349cc4b0	-0.014811234217264463
243	0xbf826c31485304bb	-0.0089954233357069
244	0xbf7811cbc9f66023	-0.005876346636249283
245	0x3f8885ff43b1a940	0.011974329236370651
246	0xbf81824357e49ebc	-0.00854923831918996
247	0x3f8cea865740c519	0.014119195497274849
248	0xbf77fafbc90b10e0	-0.005854590927530462
249	0xbf6949fff6e6c6c1	-0.0030870436960065144
250	0x3f7968dee5217eee	0.006203528102645113
251	0x3f94f0842d38a3f2	0.020448746929250868
252	0x3f7f63e48a30bdd8	0.0076636245094472075
253	0xbf4627de53726fe6	-0.0006761394096375078
254	0x3f7fecee6d5b9edf	0.007794314724129696
255	0x3f7d3828934efff2	0.007133635041952845

pesos_3 f8 [32, 7]
0	0xbfb1c0470f043c5e	-0.06934017292609115
1	0x3f9fa80559c34699	0.03091438637131336
2	0x3fb0dadb358b0e6f	0.06583948189932597
3	0xbfaf978b76226607	-0.06170306984968126
4	0xbfac6965c9bd9f89	-0.055491619946052735
5	0xbfb5d22be5d62621	-0.08523821221583507
6	0xbfaf2a3c099c4f2b	-0.060869098828474875
7	0xbfb1ded9e7862e99	-0.06980668928570778
8	0x3f9245f8f92a273d	0.01784504910259631
9	0x3fad7e4ac631523a	0.057604157155456595
10	0xbfa4aa9bf05293cd	-0.04036414440751166
11	0xbfb0f4899dfcffc8	-0.06623134715209666
12	0xbfb188a6fe73d666	-0.06849139892786979
13	0xbfab93866ea8285a	-0.053859902389448336
14	0xbfaeaa84c0d85963	-0.05989470342699368
15	0x3f90f5dec76ca8df	0.016562920495894026
16	0x3fab5ce8763e461d	0.0534432072009958
17	0xbfad41fe270e9821	-0.057144109981251974
18	0xbfa47d1fd73096b4	-0.04001712323979004
19	0xbfae888568f8ccae	-0.05963532358546196
20	0xbfa57a79d3bc8cc8	-0.041950041863196896
21	0xbfa8c4cd9b608003	-0.0483764888924725
22	0x3f983cf3c6d912d5	0.02367001439258128
23	0x3fabcb223b11b764	0.05428416224536539
24	0xbfad6b2fc3e2f8ca	-0.05745839372819857
25	0xbfabd4fc161a9ccd	-0.054359319399105745
26	0xbfb106f40348c961	-0.06651234703239119
27	0xbfab79b9dff58915	-0.05366307124019635
28	0xbfb3be6babe8d674	-0.07712433764467069
29	0x3f89c2b05a8dbc11	0.012578370822408787
30	0x3fb2ad9de012369f	0.07296168060767137
31	0xbfaee28becc90bb9	-0.06032216325231538
32	0xbfb2059a519a568f	-0.07039799206025975
33	0xbfb137ded1f5b78c	-0.06725876451466045
34	0xbfa92b524840a269	-0.04915864116657504
35	0xbfaf9c0adc6c9a9f	-0.061737384230857055
36	0x3f8138103ddf9987	0.008407713783481053
37	0x3fab6ba4684944f0	0.053555619936227816
38	0xbfb24f2ae5e1f526	-0.07152050125474271
39	0xbfae8e2b15a834a7	-0.059678408044513014
40	0xbfb2b3ac83d2352b	-0.07305410593308596
41	0xbfb27699c1e49c7d	-0.07212220176426061
42	0xbfaf2cfae4529250	-0.060890045520214486
43	0x3f99a814bdc099b8	0.025055240708889065
44	0x3fb0ec686fe08d23	0.06610729915023632
45	0xbfaa55ce8d6b31ed	-0.051435904276875145
46	0xbfb321fb8c3b9711	-0.07473728345538812
47	0xbfb2113c6fb75ada	-0.07057550170371077
48	0xbfae72fa907e7e45	-0.05947096837848823
49	0xbfb06dc9c05f7f21	-0.06417523333174958
50	0x3f6eee6c773a3459	0.0037757986518216877
51	0x3facc76eed7b735c	0.05620905541375151
52	0xbfa86cc1180c7a99	-0.047704729257238294
53	0xbfacdca86b5f7185	-0.05637098608687822
54	0xbfb111bc7f9d1fb9	-0.06667688479967539
55	0xbfabd01c96cec79d	-0.05432214108385767
56	0xbfa488ca0dfff00e	-0.040106119355158495
57	0x3f9f8bbfb22ccb29	0.030806536912858427
58	0x3faafa30ef482a82	0.052690057000366344
59	0xbfb109dd403f04c3	-0.06655676668653414
60	0xbfaba6bcbead1c76	-0.05400647952642938
61	0xbfb13343c3c69328	-0.06718848733596572
62	0xbfb1514263e2a91c	-0.067646169076998
63	0xbfb38838e9a0b4f8	-0.07629733756830948
64	0x3f7a88d601bf2479	0.006478153194572228
65	0x3fa8f54293753ae0	0.04874618577979617
66	0xbfaad5a02e37a485	-0.052411084787146435
67	0xbfb1e8ea27986e80	-0.06996024576840831
68	0xbfb17bf47d7996cc	-0.06829765380242775
69	0xbfa83a4b339fab58	-0.04731974606678219
70	0xbfb08751bd65214b	-0.0645648085966332
71	0x3f8d04170405e250	0.014167957124969238
72	0x3fb0c584b38df31b	0.0655138910642105
73	0xbfaca959db24ceec	-0.05597954559416771
74	0xbfaf6122dbaf5169	-0.06128796512317331
75	0xbfb10e5589f14820	-0.06662497155892355
76	0xbfa8f31880db84a2	-0.04872967312781752
77	0xbfac981f0f7cd2a8	-0.05584809364373672
78	0x3f7d710c2c0036a0	0.007187888666533887
79	0x3fa80ae2b48bcecd	0.04695805028850728
80	0xbfa612a01f7b88f7	-0.04311085113819673
81	0xbfa733d72a7af27a	-0.04531738656576052
82	0xbfb3898096088bdb	-0.07631686842846312
83	0xbfab6f6cc07dcf1e	-0.053584478852739745
84	0xbfad557846a224bd	-0.05729270803664963
85	0x3f8c6f0e9f0d9c8c	0.013883699635427037
86	0x3fb071b41e5a5acd	0.06423497906721849
87	0xbfac69b28229db18	-0.05549390639219193
88	0xbfa865a1c52b39bf	-0.04765038997503578
89	0xbfae1f13f6877864	-0.058830856174368035
90	0xbfae0e470fcaf3e7	-0.058702679326849076
91	0xbfb39d6c65d8e469	-0.07662084089760558
92	0x3f75705921ebd63a	0.005234096692893037
93	0x3fab752cc4d89bc1	0.05362834837824649
94	0xbfac93f28fe2a928	-0.05581624990857598
95	0xbfad272fd8d17182	-0.05693959733682431
96	0xbfb199d57e136391	-0.06875356987019489
97	0xbfb1f8f90f809a84	-0.070205274853473
98	0xbfb127210894bbaa	-0.06700331172463217
99	0x3f92f2aa53bc38c1	0.01850381980971672
100	0x3fa8e909f763491d	0.048652945946417094
101	0xbfaecf39c2702a20	-0.060174756035923815
102	0xbfb1504d390a7d88	-0.06763155596353532
103	0xbfb20adfd68b3781	-0.07047842967878461
104	0xbfb567367d34fa59	-0.08360615307626897
105	0xbfb23fe0749edcc3	-0.07128718230420632
106	0x3f5985bdfda8b134	0.0015577655200430087
107	0x3fb10a58d76959ef	0.06656413325377007
108	0xbfb2aea51630cc98	-0.07297736922991971
109	0xbfb361e839381635	-0.07571269413900768
110	0xbfac06f2634b997a	-0.054740500088700864
111	0xbfb214b52a30e593	-0.07062847404531274
112	0xbfa806849be094a3	-0.046924728420245
113	0x3f9901a389d61f65	0.024420314109675618
114	0x3fad3361618efde3	0.05703262630367669
115	0xbfac0f6bb101ea82	-0.054805150372847514
116	0xbfa89eb4615a6fed	-0.048085820087379584
117	0xbfb0199bd3ffe623	-0.06289075780650726
118	0xbfb069325a04f13a	-0.06410517404305419
119	0xbfb1ace013a63893	-0.06904411773413903
120	0x3f9db491d44900ca	0.0290091310328087
121	0x3fab351e8b7d6b88	0.05313964321859205
122	0xbfa9d9edc4df0891	-0.05049078968251409
123	0xbfaf7dc961e358db	-0.06150655097887788
124	0xbfba8d6e1fe5818c	-0.10372055319522228
125	0xbfb194ae541ef319	-0.06867494157536348
126	0xbfae22f796adef9b	-0.05886052812908745
127	0x3f85daf28148edd6	0.010671515055142782
128	0x3fa538e7287584b5	0.041449760140275606
129	0xbfb15fb338d4dd44	-0.06786651742446731
130	0xbfb419ea1938787a	-0.07852042308556575
131	0xbfb133856acfe71e	-0.06719240052907735
132	0xbfb348e5a8bdeac9	-0.07533107156443032
133	0xbfa652852ac31d87	-0.043598329038611765
134	0x3f8b56afb3ea7bcf	0.01334893482026969
135	0x3fb178c535d1b4d3	0.06824905933327167
136	0xbfb393b669b7c9c1	-0.07647266465190851
137	0xbfb114234fc1254d	-0.06671353051310298
138	0xbfb08154cd34893e	-0.06447343835728689
139	0xbfae8bb40604e2f8	-0.05965960095858763
140	0xbfb4840d41b910c6	-0.08013995031894003
141	0xbf78aa7673ece484	-0.00602194090498032
142	0x3fb0996a2033ae0b	0.06484092031649184
143	0xbfb0aee6228b3e7f	-0.06516874640805702
144	0xbfaf0806411176cb	-0.06060809654512197
145	0xbfac55ae8e13b430	-0.055341200679187685
146	0xbfafb41b38425b0e	-0.06192097722776256
147	0xbfaed33ef31ddcd6	-0.06020542829258495
148	0x3f590cc9d7215f1d	0.001528927907676398
149	0x3faf33217ae8e622	0.06093697190631199
150	0xbfad3b1ba70acf49	-0.05709158338632265
151	0xbfaa3d0cfeb31014	-0.05124703034519498
152	0xbfb4efcded406096	-0.0817841247775298
153	0xbfa77a6bf6cc0047	-0.045855878712246105
154	0xbfaadb9828bb847d	-0.052456622097232654
155	0x3f8004c239415903	0.007821576473514563
156	0x3f9ccb0905018e1d	0.02811826794676452
157	0xbfa9b3844f213bff	-0.05019772973957259
158	0xbfa8f92d44ed0e55	-0.04877606836683116
159	0xbfa90389fb33f265	-0.04885512534562934
160	0xbfa74f572ef3eabf	-0.04552719543604188
161	0xbfb1f04e7a7bf7af	-0.0700730370553788
162	0x3f98898029adda26	0.023962023300066936
163	0x3fac9b8348d4f90b	0.05587396873532854
164	0xbfa7c865ee341ceb	-0.04645079167135598
165	0xbfa9bdcc2960478e	-0.05027616505698439
166	0xbfabfa940dd97a43	-0.05464613598882242
167	0xbfa3615f3c8ca709	-0.037852264539038734
168	0xbfa8aececa8ec00e	-0.048208677507659656
169	0xbf358fac473b30da	-0.0003289981461705012
170	0x3fabdfc4af1cf082	0.05444159162149821
171	0xbfb02b84bc16648a	-0.06316403953532493
172	0xbfb26697d4acfe4e	-0.0718779463031691
173	0xbfb44ff78a381147	-0.07934519886481893
174	0xbfab96614c2392f7	-0.053881683868700785
175	0xbfabe09bedcf47e2	-0.05444800641966176
176	0x3f9134ad54ced0d0	0.016802509595166992
177	0x3fa9c7a7bc3c24e0	0.05035137341298834
178	0xbfb3fac47f3435ee	-0.07804515939297804
179	0xbfa6b8eeb0572558	-0.04437967207520427
180	0xbfb0c76031cfde08	-0.0655422326670917
181	0xbfab72e258b3e23f	-0.05361087162777211
182	0xbfaad2c209edfb85	-0.05238920565806552
183	0xbf5c20ff9940374e	-0.0017168518143110992
184	0x3faaac9d4cffde93	0.05209819378791027
185	0xbfac16648f2772e0	-0.054858343577256496
186	0xbfb0cd1e7e55ed50	-0.06562986931196702
187	0xbfb29711b01ef312	-0.07261763143374036
188	0xbfb05e02532e995e	-0.0639344647484896
189	0xbfae1b5cc8aa4896	-0.05880250882650377
190	0x3fa13fe6d00fb866	0.03369065561115363
191	0x3faefe4de2a6d49e	0.06053393737548983
192	0xbfb3207e75cc5da5	-0.07471456886229662
193	0xbfb06dcd96e3f0fa	-0.06417546209189942
194	0xbfb11059a93616dd	-0.06665573483595773
195	0xbfb013392f303375	-0.0627933254438185
196	0xbfae7e39fcad9e65	-0.059556781858927356
197	0x3f91528ab234d0c0	0.016916434408998482
198	0x3fb1c2ed12d5c37b	0.06938058576430521
199	0xbfad078820817c50	-0.05669808766173701
200	0xbfa873bff3a9aad3	-0.04775810098074875
201	0xbfb4edbe83cf9825	-0.08175268857994007
202	0xbfb4dac289850fad	-0.0814630113355281
203	0xbfae7098f3f7ec57	-0.05945280054216855
204	0x3f8e6ba6cf7342f2	0.014853766637686647
205	0x3fabb5b95ad34233	0.05412081941324622
206	0xbfb102daa9f67d50	-0.06644980096324571
207	0xbfaf4802dbffa693	-0.061096276622106725
208	0xbfb1fc59a2a95f26	-0.07025680752974192
209	0xbfa96ff658013773	-0.04968232940937769
210	0xbfb332ec4c6a024a	-0.07499577394083548
211	0x3f9c11e4d3e3d141	0.027412009651883954
212	0x3fa9a7a5c7cd70af	0.050107174529985136
213	0xbfb455a94ca5c6ca	-0.07943208810118133
214	0xbfadc10c14865c86	-0.05811345816180684
215	0xbfb145f8d2d2c8ec	-0.06747393748335967
216	0xbfa9ade51ba02bdc	-0.05015483820178421
217	0xbfaefb3691d41862	-0.0605103543294241
218	0x3f8b10de2857f4c1	0.013215766531170183
219	0x3fb36eaf27517788	0.07590765676419953
220	0xbfb2745d5b7644bc	-0.07208808405836725
221	0xbfae7a9a090489af	-0.059529126740261666
222	0xbfad8cfd41077afd	-0.05771628779233671
223	0xbfb0a466bcff2dd5	-0.06500856508426207

sesgos_0 f8 [1, 128]
0	0x3eb0e964e9738cda	1.0080156352336473e-06
1	0x3ed1b7283d82bdb0	4.223694269153198e-06
2	0xbeb962012aca3e38	-1.5129345839782072e-06
3	0xbec65bb069b4e3c3	-2.665300440487786e-06
4	0x3ea9c65cf607d580	7.681505672085391e-07
5	0xbeb62f4d8d3c63e8	-1.322315758173074e-06
6	0x3ec29a317654e5b1	2.217569021437028e-06
7	0xbec92ab570a3b250	-3.0001200502698537e-06
8	0xbeb7a014c6f53fc6	-1.4081786295534626e-06
9	0xbeafd5d5c04897aa	-9.48765660317655e-07
10	0x3ed0da55279b8bbd	4.01803537794764e-06
11	0x3ec0cd098e110ddf	2.002826577059252e-06
12	0x3ed0a16186dad345	3.9649950004841545e-06
13	0xbec203c4be2f7414	-2.147522069047376e-06
14	0x3eb568b4d0c0aec2	1.2760763779079788e-06
15	0xbeb9fa4313237f3c	-1.5483847844374317e-06
16	0x3e8aed4738397e6e	2.0062080007247536e-07
17	0xbe703dd9f489efcd	-6.050470092473843e-08
18	0x3ec8f0f7af069397	2.973232192187606e-06
19	0xbed0398802a302a0	-3.868277454966443e-06
20	0xbeb1ff13bbd434d6	-1.0726687230151243e-06
21	0x3ebcd2efa1cd1fa1	1.7180424329455372e-06
22	0xbec8b6c29890cb65	-2.9461272714968598e-06
23	0x3ecf8ecdaa92c6d7	3.7619859836961677e-06
24	0xbe92ff1bd51c6b2d	-2.830701833920294e-07
25	0x3ec8060119011bd2	2.8638189135984558e-06
26	0xbeac257551b9fe90	-8.388257443786183e-07
27	0x3ed2a4a5816aa9e0	4.44487343168951e-06
28	0x3ea9f85073c8ad9f	7.739656449670549e-07
29	0xbec6d19cc21617e1	-2.720212720577577e-06
30	0xbed10384271985e9	-4.056390581293095e-06
31	0xbec5522ce8ca0963	-2.541660995726188e-06
32	0xbec85d12f610f03e	-2.9043639391529e-06
33	0xbed076d5aadda17f	-3.925370647063822e-06
34	0x3e94e7370a81e688	3.114817084325806e-07
35	0x3eb68b79ea87dfb5	1.3437765266060255e-06
36	0x3ecb126f73447e59	3.2272354478916506e-06
37	0xbec3c6f661c07c19	-2.3576256023140273e-06
38	0xbec2e4d5b2363da7	-2.2523266964347374e-06
39	0x3ed6d94f4370956c	5.44759409762861e-06
40	0x3ecb3632a5de6117	3.2438886554236673e-06
41	0xbea3b4fc3cc533fe	-5.873135875772643e-07
42	0xbecb0a9d615a95e5	-3.223593703821235e-06
43	0xbec357474a3dfcea	-2.3056187092304044e-06
44	0xbe96d7813ea50b36	-3.403695802048488e-07
45	0x3ec5f294e8ceb6ba	2.6163559767232107e-06
46	0x3ecac879ba0f5576	3.1927952055347772e-06
47	0xbeb06cf752873bed	-9.790449643114774e-07
48	0xbecd84fe7688e599	-3.518999552445858e-06
49	0xbec194be21d5d203	-2.0958216412853103e-06
50	0x3ec322697e4b22d9	2.2810008764899726e-06
51	0xbebb1cd791467b89	-1.6160407244403618e-06
52	0x3e97ceae37828974	3.5475709792890153e-07
53	0xbea0ea98844e0ff9	-5.04147700128732e-07
54	0xbebcf3024cbf6060	-1.725509991770353e-06
55	0x3ec61c037447b737	2.6356491693500984e-06
56	0x3eb9227761f6ab9c	1.4981409391749738e-06
57	0xbec2ee491ac6395f	-2.2567275747626987e-06
58	0x3e970cf5728f55c1	3.4348100768957424e-07
59	0x3ec9c676e133586e	3.0726494145523594e-06
60	0x3eac0bd8248e70b3	8.358438857605804e-07
61	0x3eb2f40a9b35c7b6	1.1297039293725625e-06
62	0xbed085fd8f46a1ea	-3.939485612760167e-06
63	0x3ec4038f979d9bb3	2.3858439676562926e-06
64	0x3ec2d5908d7f717b	2.2452160059872407e-06
65	0x3eb40ef4f947cd5f	1.1955753268483614e-06
66	0xbeccbc070e2a8c81	-3.4254172630185054e-06
67	0x3eb2884ff067eedc	1.1046212776690412e-06
68	0xbeada3a367527069	-8.833173540559396e-07
69	0x3ec9df2958a99e5b	3.084149914390171e-06
70	0xbed6b5d7b40d89a8	-5.4145628503886445e-06
71	0xbea8acc5b56e4fa1	-7.353690801730695e-07
72	0xbed460baeb7155bc	-4.858458559094664e-06
73	0x3ec028e0d6e3f30e	1.926384064819526e-06
74	0xbeb3eca9b0760ca7	-1.187590614155207e-06
75	0x3ea641c563d66d47	6.633078510233846e-07
76	0xbeb6205d81689d88	-1.3188378084146767e-06
77	0xbebacfc69b5b2769	-1.5980973392830936e-06
78	0xbeb03a648b844a4a	-9.672699388714483e-07
79	0xbeb6efed933cc6b1	-1.367164782228538e-06
80	0x3ea3404a3f7cda06	5.737284700439136e-07
81	0x3ed01416d1184271	3.833406724066376e-06
82	0xbec65ff28287e656	-2.667283315324613e-06
83	0x3ebd9cef8c49b28d	1.7650741465327283e-06
84	0xbeb7660b71ab9814	-1.3946659637663902e-06
85	0x3ea2c16e583bfb18	5.589601390353141e-07
86	0xbe5a0b9060556d37	-2.4256456417553903e-08
87	0xbea1600cfd8dc3dd	-5.1782125885639e-07
88	0xbeb5bab94a6ad83a	-1.2951725609062303e-06
89	0xbebd71ce2912348f	-1.7550320630416908e-06
90	0x3edaf221980c6db1	6.424385333738041e-06
91	0x3eb5386887997151	1.2648311255225953e-06
92	0xbece91e216481a48	-3.6442108231089138e-06
93	0x3ec5fc5f2a51bba6	2.620914829657789e-06
94	0xbe84a99dd5b087e4	-1.539481030164207e-07
95	0xbec64bd7f3d8807b	-2.6579217820150124e-06
96	0xbec2f250cb851558	-2.2586042086903783e-06
97	0xbec0909dc9bb70d4	-1.9746908729145955e-06
98	0x3ea85459ce81493e	7.250754636789904e-07
99	0xbe6c10efdf8a36d5	-5.2277297106761896e-08
100	0xbeb92790599aa335	-1.499327800061866e-06
101	0x3eacdf0cda4dae4d	8.604314883758961e-07
102	0x3ecc2c27abb0a8ea	3.358421364581527e-06
103	0x3eb7c580866843da	1.4168913594662248e-06
104	0xbec218e93284fb1c	-2.1573672663028036e-06
105	0xbebd7b4003f6f7c6	-1.7572310894021762e-06
106	0x3ec819a30af7a1e9	2.8729610546016765e-06
107	0x3ec4f9b6f63d52fe	2.5004682572639155e-06
108	0x3e8d1ab2558a31cd	2.1684381114709268e-07
109	0x3ec67d2b5eb49e9e	2.68089092049838e-06
110	0xbeb5af2b5bd8d481	-1.2924823375008733e-06
111	0xbeb06161b74066dd	-9.763477608671052e-07
112	0xbebf893a25e639c8	-1.879694671555822e-06
113	0xbec6f5bd8392a335	-2.7370361093858466e-06
114	0x3ea45e67c00f6181	6.070366681500189e-07
115	0xbea1b34d9e7eb582	-5.275131202874609e-07
116	0xbec426712029df31	-2.4020866942717723e-06
117	0x3ebfa01bc12e1b1f	1.8850221336922649e-06
118	0x3eae9675508a7d89	9.115853184144705e-07
119	0x3ec16ae4a43b1434	2.076333915331766e-06
120	0x3ea48b94d2a0dbeb	6.122958542469016e-07
121	0x3ed0fe25d5fc8752	4.051390845723401e-06
122	0xbec394660640669c	-2.3340799533255968e-06
123	0x3ebf92142808bc3e	1.8817555941343839e-06
124	0x3e736a611504b460	7.232853716363004e-08
125	0x3eb45dbbae5c8c0f	1.213916840333383e-06
126	0xbebaf5b3001a4c70	-1.6069270717719378e-06
127	0xbe6aee23e45d2f11	-5.016147190550762e-08
